…
2020-11-24 09:19:10.253364: I tensorflow/stream_executor/platform/default/dso_loader.cc:44] Successfully opened dynamic library libcudnn.so.7
2020-11-24 09:19:11.184994: W tensorflow/stream_executor/cuda/ptxas_utils.cc:116] *** WARNING *** You are using ptxas 9.0.176, which is older than 9.2.88. ptxas 9.x before 9.2.88 is known to miscompile XLA code, leading to incorrect results or invalid-address errors.

You do not need to update to CUDA 9.2.88; cherry-picking the ptxas binary is sufficient.
Model: "dqn"
_________________________________________________________________
Layer (type)                 Output Shape              Param #   
=================================================================
conv2d_1 (Conv2D)            (None, 20, 20, 32)        8224      
_________________________________________________________________
conv2d_2 (Conv2D)            (None, 9, 9, 64)          32832     
_________________________________________________________________
conv2d_3 (Conv2D)            (None, 7, 7, 64)          36928     
_________________________________________________________________
flatten_1 (Flatten)          (None, 3136)              0         
_________________________________________________________________
dense_1 (Dense)              (None, 512)               1606144   
_________________________________________________________________
dense_2 (Dense)              (None, 6)                 3078      
=================================================================
Total params: 1,687,206
Trainable params: 1,687,206
Non-trainable params: 0
_________________________________________________________________
Model: "target_dqn"
_________________________________________________________________
Layer (type)                 Output Shape              Param #   
=================================================================
conv2d_4 (Conv2D)            (None, 20, 20, 32)        8224      
_________________________________________________________________
conv2d_5 (Conv2D)            (None, 9, 9, 64)          32832     
_________________________________________________________________
conv2d_6 (Conv2D)            (None, 7, 7, 64)          36928     
_________________________________________________________________
flatten_2 (Flatten)          (None, 3136)              0         
_________________________________________________________________
dense_3 (Dense)              (None, 512)               1606144   
_________________________________________________________________
dense_4 (Dense)              (None, 6)                 3078      
=================================================================
Total params: 1,687,206
Trainable params: 1,687,206
Non-trainable params: 0
_________________________________________________________________
frames:  1000, reward: -21.00, epsilon: 0.905789, episode:    1
frames:  2000, reward: -21.00, epsilon: 0.820543, episode:    2
frames:  3000, reward: -21.00, epsilon: 0.743410, episode:    3
…
